…
=========] - 3s 2ms/step - loss: 0.4001 - accuracy: 0.8579 Epoch 5/5 1875/1875 [==============================] - 3s 2ms/step - loss: 0.3753 - accuracy: 0.8673 . &lt;keras.callbacks.History at 0x7f55d055a8c0&gt; . net1.evaluate(XX,yy) . 313/313 [==============================] - 1s 2ms/step - loss: 0.4420 - accuracy: 0.8570 . [0.4419509172439575, 0.8569999933242798] . net1.summary() . Model: &#34;sequential&#34; _________________________________________________________________ Layer (type) Output Shape Param # ================================================================= flatten (Flatten) (None, 784) 0 dense (Dense) (None, 500) 392500 dense_1 (Dense) (None, 500) 250500 dense_2 (Dense) (None, 500) 250500 dense_3 (Dense) (None, 500) 250500 dense_4 (Dense) (None, 10) 5010 ================================================================= Total params: 1,149,010 Trainable params: 1,149,010 Non-trainable params: 0 _________________________________________________________________ . - 두번째 시도 . net2 = tf.keras.Sequential() net2.add(tf.keras.layers.Conv2D(30,(2,2),activation=&#39;relu&#39;)) net2.add(tf.keras.layers.MaxPool2D()) net2.add(tf.keras.layers.Conv2D(30,(2,2),a
…
========] - 3s 1ms/step - loss: 0.3110 - accuracy: 0.8875 Epoch 5/5 1875/1875 [==============================] - 4s 2ms/step - loss: 0.2929 - accuracy: 0.8925 . &lt;keras.callbacks.History at 0x7f55d055be50&gt; . net2.evaluate(XX,yy) . 313/313 [==============================] - 1s 1ms/step - loss: 0.3280 - accuracy: 0.8807 . [0.32795271277427673, 0.8806999921798706] . net2.summary() . Model: &#34;sequential_1&#34; _________________________________________________________________ Layer (type) Output Shape Param # ================================================================= conv2d (Conv2D) (None, 27, 27, 30) 150 max_pooling2d (MaxPooling2D (None, 13, 13, 30) 0 ) conv2d_1 (Conv2D) (None, 12, 12, 30) 3630 max_pooling2d_1 (MaxPooling (None, 6, 6, 30) 0 2D) flatten_1 (Flatten) (None, 1080) 0 dense_5 (Dense) (None, 10) 10810 ================================================================= Total params: 14,590 Trainable params: 14,590 Non-trainable params: 0 _________________________________________________________________ . 14590/ 1149010 . 0.012697887746842934 . c1, m1, c2, m2, flttn, dns = net2.layers . MaxPool2D . &#53580;&#49828;&#53944;1 . - 레이어생성 . m=tf.keras.layers.MaxPool2D() . - 입력데이터 . XXX = tnp.arange(1*4
…
